…
sage)s'}}, 'handlers': {'console': {'class': 'logging.StreamHandler', 'formatter': 'simple', 'stream': 'ext://sys.stdout'}, 'file': {'class': 'logging.FileHandler', 'formatter': 'simple', 'filename': 'hydra_train.log'}}, 'root': {'level': 'INFO', 'handlers': ['console', 'file']}, 'disable_existing_loggers': False}}
[2023-03-27 22:24:18,890][fairseq.tasks.masked_lm][INFO] - dictionary: 50264 types
[2023-03-27 22:24:19,074][fairseq_cli.train][INFO] - RobertaModel(
  (encoder): RobertaEncoder(
    (sentence_encoder): TransformerEncoder(
      (dropout_module): FairseqDropout()
      (embed_tokens): Embedding(50265, 192, padding_idx=1)
      (embed_positions): LearnedPositionalEmbedding(514, 192, padding_idx=1)
      (layernorm_embedding): LayerNorm((192,), eps=1e-05, elementwise_affine=True)
      (layers): ModuleList(
        (0): TransformerEncoderLayerBase(
          (self_attn): MultiheadAttention(
            (dropout_module): FairseqDropout()
            (k_proj): Linear(in_features=192, out_features=192, bias=True)
            (v_proj): Linear(in_features=192, out_features=192, bias=True)
            (q_proj): Linear(in_features=192, out_features=192, bias=True)
            (out_proj): Linear(in_features=192, out_features=192, bias=True)
          )
          (self_attn_layer_norm): LayerNorm((192,), eps=1e-05, elementwise_affine=True)
          (dropout_module): FairseqDropout()
          (activation_dropout_module): FairseqDropout()
          (fc1): Linear(in_features=192, out_features=768, bias=True)
          (fc2): Linear(in_features=768, out_features=192, bias=True)
          (final_layer_norm): LayerNorm((192,), eps=1e-05, elementwise_affine=True)
        )
      )
    )
    (lm_head): RobertaLMHead(
      (dense): Linear(in_features=192, out_features=192, bias=True)
      (layer_norm): LayerNorm((192,), eps=1e-05, elementwise_affine=True)
    )
  )
  (classification_heads): ModuleDict()
)
[2023-03-27 22:24:19,076][fairseq_cli.train][INFO] - task: MaskedLMTask
[2023-03-27 22:24:19,077][fairseq_cli.train][INFO] - model: RobertaModel
[2023-03-27 22:24:19,077][fairseq_cli.train][INFO] - criterion: MaskedLmLoss
[2023-03-27 22:24:19,078][fairseq_cli.train][INFO] - num. shared model params: 10,282,521 (num. trained: 10,282,521)
…
